…
train:  {'corrcoef': 0.9839842125076165, 'rmse': 0.18787505, 'all_season_cc': 0.9839720661056034, 'mae': 168.4607917740941}
29
new best
validation:  {'corrcoef': 0.9893725436643824, 'rmse': 0.15005653, 'all_season_cc': 0.9895813879980034, 'mae': 2.1038452982902527}
train:  {'corrcoef': 0.9841352552580718, 'rmse': 0.19837907, 'all_season_cc': 0.9841268071736137, 'mae': 176.37913271784782}
30
The new directory is created!
this is your model: nlim(
  (layers): ModuleList(
    (0): GraphConvolution (6 -> 250)
    (1): GraphConvolution (250 -> 1)
  )
  (MLP_layer): LIM_MLP(
    (FC_layers): ModuleList(
      (0): Linear(in_features=602, out_features=301, bias=True)
      (1): BatchNorm1d(301, eps=1e-05, momentum=0.1, affine=True, track_running_stats=True)
      (2): ELU(alpha=1.0)
      (3): Linear(in_features=301, out_features=150, bias=True)
      (4): BatchNorm1d(150, eps=1e-05, momentum=0.1, affine=True, track_running_stats=True)
      (5): ELU(alpha=1.0)
      (6): Linear(in_features=150, out_features=75, bias=True)
      (7): BatchNorm1d(75, eps=1e-05, momentum=0.1, affine=True, track_running_stats=True)
      (8): ELU(alpha=1.0)
      (9): Linear(in_features=75, out_features=37, bias=True)
      (10): BatchNorm1d(37, eps=1e-05, momentum=0.1, affine=True, track_running_stats=True)
      (11): ELU(alpha=1.0)
    )
    (out_layer): Linear(in_features=37, out_features=1, bias=True)
  )
  (LIM_learner): LIMG_PC()
)
Saving final model...
out/1lead/
Train set: 36132 Validation set 600 Test set 408
shape static feats (602, 1200)
outputdim: 1
[GraphConvolution (6 -> 250), GraphConvolution (250 -> 1)]
Using Adam optimizer: Lr= 0.005 Wd= 1e-06
getttt probable babbby
CRPS LOSS:  tensor(0.0961)
validation:  {'corrcoef': 0.9855685928855732, 'rmse': 0.16773061, 'all_season_cc': 0.9861298250832559, 'mae': 2.5412170812487602, 'crps': tensor(0.0961)}
…
train:  {'corrcoef': 0.9842523692119981, 'rmse': 0.15750359, 'all_season_cc': 0.9842533077985149, 'mae': 136.5458066612482}
29
CRPS LOSS:  tensor(0.0895)
validation:  {'corrcoef': 0.9888283023342567, 'rmse': 0.15701197, 'all_season_cc': 0.9891686238772799, 'mae': 2.2880848608911037, 'crps': tensor(0.0895)}
train:  {'corrcoef': 0.9839406591888117, 'rmse': 0.19371977, 'all_season_cc': 0.983943073889873, 'mae': 169.28588148206472}
30
The new directory is created!
this is your model: nlim(
  (layers): ModuleList(
    (0): GraphConvolution (6 -> 250)
    (1): GraphConvolution (250 -> 1)
  )
  (MLP_layer): LIM_MLP_GaussLL(
    (FC_layers): ModuleList(
      (0): Linear(in_features=602, out_features=301, bias=True)
      (1): BatchNorm1d(301, eps=1e-05, momentum=0.1, affine=True, track_running_stats=True)
      (2): ELU(alpha=1.0)
      (3): Linear(in_features=301, out_features=150, bias=True)
      (4): BatchNorm1d(150, eps=1e-05, momentum=0.1, affine=True, track_running_stats=True)
      (5): ELU(alpha=1.0)
      (6): Linear(in_features=150, out_features=75, bias=True)
      (7): BatchNorm1d(75, eps=1e-05, momentum=0.1, affine=True, track_running_stats=True)
      (8): ELU(alpha=1.0)
      (9): Linear(in_features=75, out_features=37, bias=True)
      (10): BatchNorm1d(37, eps=1e-05, momentum=0.1, affine=True, track_running_stats=True)
      (11): ELU(alpha=1.0)
    )
    (out_layer): Linear(in_features=37, out_features=1, bias=True)
    (var_layer): Linear(in_features=37, out_features=1, bias=True)
  )
  (LIM_learner): LIMG_PC()
)
Saving final model...
torch-version:  1.10.1
Namespace(data_dir='Data/', epochs=30, gpu_id=0, grid_edges='false', horizon=1, lr=None, numeof=None, optim='adam', out='out', seed=1, weight_decay=None)
device available : True
device count:  1
current device:  0
device name:  Tesla V100-SXM2-32GB
Tesla V100-SXM2-32GB
Memory Usage:
…
